artifacts/final_model.pth (torch, 18224 bytes, 5 tensors)

fc1.weight f4 [64, 27]
-0.037343144 0.35431978 0.04959438 0.2564756 0.30374652 0.29371697 0.18752928 0.33893132
-0.03247417 -0.11031417 0.23413484 0.083551 0.1907203 -0.3063246 0.14648719 -0.061716653
-0.19453591 -0.10219053 -0.27124774 0.12129314 0.11763724 0.28018275 0.11698904 0.35760206
-0.21376301 0.29078946 0.1656452 -0.30879512 -0.13646592 0.055907838 -0.13847479 0.1360281
-0.3099572 -0.2365163 -0.31696424 -0.24397422 -0.012067811 -0.13435078 0.22724643 -0.28796813
0.20990211 0.13361841 0.15713215 0.08787915 0.13205369 -0.07147172 -0.23855013 0.037655815
-0.23551305 -0.065560006 -0.11502279 0.047408726 0.06277034 -0.19029027 0.36176002 0.26518095
0.31495595 0.28812146 0.2556466 0.14168489 0.27708465 -0.04305153 0.19689399 0.037017874
-0.008524127 -0.22646776 0.02884958 0.05592276 0.2080764 -0.26628432 -0.09970159 0.0048418236
0.21325175 0.36956024 0.120560884 -0.10624641 -0.15481919 0.20951742 0.26153687 0.13074382
0.08654933 -0.19578607 0.35288227 0.36853978 0.0060580363 0.24001276 0.21924144 0.04673369
0.09500911 -0.00056020595 -0.28300467 -0.16777802 0.03067784 0.1706169 0.1705722 -0.044022974
-0.016769096 0.10823176 -0.15946315 -0.21224289 0.028364826 -0.3205567 0.23861904 0.116212234
0.041839503 0.009958675 0.28777453 0.28261042 -0.23370513 0.1458081 0.20409164 0.13994128
0.20098601 0.10944381 -0.1378504 0.045466747 0.20936781 -0.1647722 -0.12580723 0.055280376
-0.23431522 -0.24136409 -0.012865712 -0.19189847 0.16159132 -0.22300476 -0.3750909 -0.107340164
-0.06555971 -0.051851444 0.22987853 0.094365455 -0.30569124 -0.3212628 -0.16124557 0.19923727
0.13381408 0.30458626 0.23330815 0.34079856 0.020407284 -0.041608416 0.2564689 0.1489994
-0.05969314 0.14754069 -0.13999803 -0.20505512 -0.34081408 0.23863211 -0.013183663 -0.24187082
-0.20081654 -0.07956172 0.10727874 0.13953166 0.22850433 0.29054427 0.36148316 -0.21598373
-0.0545468 0.21436502 0.019576285 -0.025999723 0.16830595 -0.20506452 -0.08950694 -0.14962071
0.005494184 -0.05295733 -0.25771382 -0.26923183 0.015512098 -0.16506451 -0.13168134 -0.16933319
0.047268577 -0.23705357 -0.17130715 -0.10066782 -0.24807149 -0.2859849 -0.019407969 -0.24338903
0.055956595 -0.264951 -0.06405682 0.1389955 0.092974864 0.2714364 0.18661018 0.25375488
0.3426128 0.119679816 0.06356635 0.10196591 0.32244396 0.34310967 0.28892758 0.25571817
0.106530264 -0.22419491 -0.11024504 0.067819536 0.08118633 -0.0006046368 0.05521763 -0.035924494
0.09509641 0.1899179 0.32665494 0.09151803 0.31850502 -0.08889347 0.076047756 0.20648383
0.22878471 0.29697245 0.30612653 0.26083705 0.33176178 0.06443343 0.034086265 0.19736166
0.28927937 -0.023944639 0.1657475 0.059363157 0.13077368 -0.107556395 0.016776942 0.28530237
0.032666065 -0.27741092 -0.12309075 -0.13671514 -0.28182435 0.028374039 0.2530693 0.279291
-0.29131547 -0.015076807 -0.009215493 0.27156597 0.028879588 0.09526031 0.03220193 0.29990816
0.13374653 0.20306727 0.2915687 0.2652666 0.08620483 -0.10460752 0.20368282 0.2262624
00000000: 20f5 18bd 6769 b53e 7a23 4b3d c550 833e
00000010: aa84 9b3e 1262 963e ad07 403e 6888 ad3e
00000020: a303 05bd 65ec e1bd 0bc1 6f3e c91c ab3d
00000030: 2f4c 433e 94d6 9cbe bd00 163e 9aca 7cbd
00000040: 6c34 47be 4549 d1bd fce0 8abe 8a68 f83d
00000050: cbeb f03d 1d74 8f3e f397 ef3d 9e17 b73e
00000060: b1e4 5abe 5be2 943e e59e 293e 651a 9ebe
00000070: b9bd 0bbe 9eff 643d 56cc 0dbe f34a 0b3e
00000080: b6b2 9ebe 5431 72be 2349 a2be 61d4 79be
00000090: 11b8 45bc 4093 09be 4ab3 683e 8f70 93be
000000a0: 94f0 563e 44d3 083e 40e7 203e fcf9 b33d
000000b0: 1539 073e c45f 92bd 7c46 74be fc3c 1a3d
000000c0: 552a 71be 5344 86bd 1291 ebbd a72f 423d
000000d0: bc8d 803d 74db 42be 9c38 b93e ccc5 873e
000000e0: e841 a13e a884 933e 1ce4 823e d815 113e
000000f0: 0ade 8d3e cd56 30bd 949e 493e 0ea0 173d
00000100: c8a8 0bbc 2ae7 67be f455 ec3c 440f 653d
00000110: fb11 553e 6b56 88be 5930 ccbd 29a8 9e3b
00000120: ab5e 5a3e 0037 bd3e a0e8 f63d b897 d9bd
00000130: ec88 1ebe bc8b 563e 29e8 853e b5e1 053e
00000140: c640 b13d 257c 48be fcac b43e 3fb1 bc3e
00000150: 7e82 c63b e8c5 753e d480 603e d36b 3f3d
00000160: 2394 c23d c9da 12ba fde5 90be 00ce 2bbe
00000170: 1850 fb3c 32b6 2e3e 7baa 2e3e 6f51 34bd
00000180: 585f 89bc 9da8 dd3d 4f4a 23be 3356 59be
00000190: 5a5d e83c 0220 a4be 8d58 743e ae00 ee3d
000001a0: e65f 2b3d b629 233c 2f57 933e 50b2 903e
000001b0: 6650 6fbe b84e 153e 66fd 503e c44c 0f3e
000001c0: 47cf 4d3e 1424 e03d a828 0dbe 573b 3a3d
000001d0: 8464 563e 0bba 28be 9cd3 00be ad6d 623d
000001e0: 54f0 6fbe 2628 77be b5ca 52bc 0881 44be
000001f0: 3278 253e 5c5b 64be ea0b c0be 29d5 dbbd
00000200: 2b44 86bd 2e62 54bd 4765 6b3e ad42 c13d
00000210: 9083 9cbe 8f7c a4be 8f1d 25be db04 4c3e
00000220: 8f06 093e bbf2 9b3e 55e8 6e3e 267d ae3e
00000230: 2d2d a73c 966d 2abd e44f 833e 4c93 183e
00000240: cb80 74bd e814 173e a55b 0fbe f8f9 51be
00000250: 2f7f aebe fa5b 743e 4a00 58bc fcac 77be
00000260: daa2 4dbe 41f1 a2bd f5b4 db3d 63e1 0e3e
00000270: 0afd 693e 38c2 943e 5214 b93e d72a 5dbe
00000280: 776c 5fbd 8182 5b3e 725e a03c 5ffd d4bc
00000290: 6558 2c3e 6ffc 51be 6a4f b7bd 2c36 19be
000002a0: 8e08 b43b c9e9 58bd 11f3 83be c1d8 89be
000002b0: 7426 7e3c ac06 29be 79d7 06be ae65 2dbe
000002c0: b29c 413d 2cbe 72be 246b 2fbe ee2a cebd
000002d0: 7406 7ebe 9d6c 92be 76fd 9ebc f93a 79be
000002e0: be32 653d a8a7 87be 3930 83bd d654 0e3e
000002f0: 9b69 be3d b6f9 8a3e bd16 3f3e 29ec 813e
00000300: f26a af3e b11a f53d 132f 823d 81d3 d03d
00000310: 6017 a53e 12ac af3e 51ee 933e 7eed 823e
00000320: 8a2c da3d 5a93 65be 27c8 e1bd f8e4 8a3d
00000330: 0545 a63d 7d80 1eba e22b 623d 9025 13bd
00000340: e8c1 c23d d779 423e 513f a73e ce6d bb3d
00000350: 1713 a33e c80d b6bd edbe 9b3d 7f70 533e
00000360: 8a46 6a3e c60c 983e 9ebc 9c3e 6f8c 853e
00000370: aedc a93e adf5 833d 0a9e 0b3d 2d19 4a3e
00000380: 6d1c 943e 8c27 c4bc b6b9 293e c826 733d
00000390: 89e9 053e 8746 dcbd cc6f 893c 2713 923e
000003a0: dacc 053d ce08 8ebe 0117 fcbd 0eff 0bbe
000003b0: 484b 90be ac70 e83c 4d92 813e 3bff 8e3e
000003c0: 4d27 95be b604 77bc 94fc 16bc b20a 8b3e
000003d0: e394 ec3c d617 c33d 2ce6 033d 908d 993e
000003e0: daf4 083e def0 4f3e 7e48 953e 06d1 873e
000003f0: 288c b03d 783c d6bd 3b92 503e 55b1 673e

fc1.bias f4 [64]
0.0849045 0.16881596 0.28549978 0.10653493 0.2896254 0.24550949 0.09072545 0.12305585
0.27937803 0.210946 0.08339247 0.00786597 0.31552252 0.32748824 0.28195363 0.3916603
0.19558494 0.07246311 0.08257331 0.15352622 0.21501589 0.20500733 0.18407497 0.057873163
0.04998774 0.08807018 0.31581563 0.11574946 0.015767034 0.2508118 0.37585774 0.27335843
0.24249776 0.10302125 0.07459219 0.13332023 0.14399886 0.077717125 0.15407464 0.11338878
0.21813753 0.20505399 0.37816283 0.28534064 0.31156504 0.3893658 0.11490808 0.39017892
0.18132167 0.27023953 0.16835096 0.19927497 0.36919752 0.12349156 0.22781269 0.22158545
0.12886518 0.33561984 0.20629403 0.27461353 0.07703747 0.19853006 0.2914966 0.1744371
00000000: 69e2 ad3d 17de 2c3e 072d 923e fc2e da3d
00000010: c849 943e d766 7b3e 44ce b93d b504 fc3d
00000020: a30a 8f3e 3a02 583e acc9 aa3d 45e0 003c
00000030: 2b8c a13e 8aac a73e 3a5c 903e b387 c83e
00000040: 6b47 483e 8a67 943d 321c a93d fa35 1d3e
00000050: 202d 5c3e 71ed 513e 267e 3c3e 690c 6d3d
00000060: f2bf 4c3d 235e b43d 96b2 a13e 0e0e ed3d
00000070: de29 813c 676a 803e 6d70 c03e a3f5 8b3e
00000080: 5551 783e cefc d23d cac3 983d 1985 083e
00000090: 7074 133e 282a 9f3d bec5 1d3e 6038 e83d
000000a0: 725f 5f3e acf9 513e 8f9e c13e 2b18 923e
000000b0: 7485 9f3e f45a c73e ed54 eb3d 88c5 c73e
000000c0: 63ac 393e d65c 8a3e 3264 2c3e bd0e 4c3e
000000d0: 7507 bd3e 25e9 fc3d bb47 693e 4ce7 623e
000000e0: 3cf5 033e 5dd6 ab3e be3e 533e 259a 8c3e
000000f0: d2c5 9d3d 774b 4b3e 0b3f 953e a49f 323e

fc2.weight f4 [32, 64]
0.13028824 0.35148627 0.25636843 0.18734564 0.18729144 0.25595987 0.24956456 0.1173457
0.10948827 0.32573825 0.13586666 0.35637793 0.27032632 0.15830593 0.17171241 0.27867237
0.20042315 0.3435663 0.24191657 0.10280195 0.33674008 0.0886906 0.16519137 0.32118082
0.21594048 0.20686865 0.1551744 0.26476356 0.13333583 0.32250306 0.24624288 0.22599185
0.2138692 0.31999663 0.16912483 0.319865 0.27500543 0.32640848 0.16900353 0.11519581
0.16999233 0.20493098 0.23277515 0.16088274 0.12413105 0.2454167 0.1922824 0.12976013
0.20333897 0.10882366 0.119086996 0.13337791 0.29861838 0.20754756 0.25608322 0.30562836
0.30068183 0.1058437 0.28304455 0.11564335 0.108516425 0.15110806 0.2946713 0.17866482
0.00671293 -0.14768794 -0.10867297 0.064102985 0.026440978 -0.07303336 0.09195983 -0.006451484
0.07305292 0.06495284 -0.033747252 0.086847775 -0.114553355 -0.057131022 0.08733069 -0.13536327
-0.13081093 0.011280004 0.06493375 -0.028168557 -0.043333218 -0.05002877 0.027069457 -0.080604255
0.004473975 -0.0785168 0.004976944 0.084721945 0.013024071 0.01979387 -0.1426392 -0.08192002
-0.051634498 -0.020303061 0.015867902 -0.06110689 0.037985586 -0.0041624163 -0.10546325 -0.05425444
0.04559445 -0.14679445 -0.14524195 -0.008140295 -0.08743002 -0.01736858 -0.0511899 0.0851886
-0.011750139 -0.12861882 0.073829405 -0.060724422 0.0032857338 -0.07729295 0.086833656 0.023952397
-0.1075292 0.08580913 -0.119002916 -0.07873505 -0.1573781 -0.0063962806 0.043150354 -0.09973583
0.010445588 -0.065871865 -0.103075035 -0.09153355 0.070640735 -0.14220138 -0.058879875 -0.098829016
0.05506226 -0.023923568 0.030046495 0.07862268 -0.022873065 -0.056362487 -0.13703631 0.009703147
0.051148713 0.05305466 0.030905804 -0.056386 0.08551415 -0.010874598 0.012098383 -0.12610836
0.09631632 -0.037135623 0.0080662 -0.032046683 0.05279947 -0.11386028 -0.121512875 -0.079709046
-0.12190156 0.08330056 -0.05412788 -0.027116707 -0.00042332566 -0.07824143 0.028325215 0.080005124
0.024119522 -0.00347467 -0.10753336 -0.0065184142 -0.037771575 0.041799296 -0.059367757 0.058931913
0.06626627 0.082063 -0.13833869 0.0781908 -0.13358761 -0.099174544 -0.051453497 -0.014605304
0.036390584 -0.05710242 -0.1226027 0.057898644 0.014660366 -0.13725328 0.053063363 -0.022572655
-0.046907917 0.066373095 -0.11286888 0.09038088 0.09697759 -0.13671778 0.10605125 0.03398015
-0.04585693 -0.003136522 -0.05680902 -0.0919622 -0.1327645 0.09076777 -0.05855594 -0.120985575
0.08434023 0.014694435 -0.019935848 -0.0698371 -0.04876066 -0.018892797 -0.11606378 -0.054639153
-0.0103927795 0.029834382 -0.043969557 -0.06403448 0.08218342 0.09788568 0.014034236 -0.015552843
-0.093413495 -0.063721806 -0.13625696 -0.1360129 0.044130854 0.04125633 -0.0070129205 -0.10460373
-0.071423374 -0.09321032 0.10287096 0.01936812 -0.027330454 -0.028820444 0.04847587 0.027628312
0.02115874 0.0073498245 -0.024290465 -0.07435972 -0.07926287 0.06567604 -0.032568112 -0.00656807
-0.11968624 -0.11383057 0.044654716 0.062762395 -0.06520511 -0.12775698 -0.05327114 -0.04236755
00000000: 486a 053e 02f6 b33e b942 833e 89d7 3f3e
00000010: 54c9 3f3e 2c0d 833e da8d 7f3e f152 f03d
00000020: 633b e03d 2ac7 a63e a120 0b3e 2b77 b63e
00000030: 3668 8a3e f31a 223e 61d5 2f3e 25ae 8e3e
00000040: ba3b 4d3e ece7 af3e fab8 773e d489 d23d
00000050: 3269 ac3e 6ba3 b53d ed27 293e d071 a43e
00000060: 801f 5d3e 60d5 533e 0ae6 1e3e 178f 873e
00000070: 3089 083e 1f1f a53e 1827 7c3e 686a 673e
00000080: 8700 5b3e 99d6 a33e 0f2f 2d3e 58c5 a33e
00000090: 83cd 8c3e 031f a73e 430f 2d3e c8eb eb3d
000000a0: 7812 2e3e 6dd9 513e 9c5c 6e3e 72be 243e
000000b0: 6c38 fe3d 844e 7b3e ade5 443e d7df 043e
000000c0: 1738 503e f0de de3d e2e3 f33d 3894 083e
000000d0: 82e4 983e 5987 543e 571d 833e 527b 9c3e
000000e0: f8f2 993e 95c4 d83d 37eb 903e 6cd6 ec3d
000000f0: dc3d de3d 12bc 1a3e 28df 963e e9f3 363e
00000100: 23f8 db3b 823b 17be ef8f debd 6d48 833d
00000110: c09a d83c 8492 95bd 6f55 bc3d f866 d3bb
00000120: c59c 953d ff05 853d 8f3a 0abd 3fdd b13d
00000130: f39a eabd 3802 6abd 6fda b23d ab9c 0abe
00000140: 4df3 05be c4cf 383c fcfb 843d bfc1 e6bc
00000150: 2c7e 31bd f8ea 4cbd c4c0 dd3c d813 a5bd
00000160: 6c9a 923b 6bcd a0bd a215 a33b b382 ad3d
00000170: ea62 553c c126 a23c 0310 12be afc5 a7bd
00000180: b27e 53bd 9b52 a6bc 67fd 813c 384b 7abd
00000190: c696 1b3d e164 88bb 1efd d7bd e739 5ebd
000001a0: 3fc1 3a3d 4951 16be 4eba 14be df5e 05bc
000001b0: 830e b3bd 8d48 8ebc 80ac 51bd 5c77 ae3d
000001c0: a883 40bc a7b4 03be df33 973d 2cba 78bd
000001d0: 7755 573b c44b 9ebd d8d5 b13d d137 c43c
000001e0: 4538 dcbd b2bc af3d cdb7 f3bd d83f a1bd
000001f0: ba27 21be e497 d1bb 6dbe 303d 4d42 ccbd
00000200: f923 2b3c d4e7 86bd 0119 d3bd f175 bbbd
00000210: 17ac 903d 3d9d 11be 062c 71bd de66 cabd
00000220: f788 613d 5cfb c3bc 1124 f63c ed04 a13d
00000230: 4b60 bbbc 5adc 66bd 3f53 0cbe f3f9 1e3c
00000240: 5081 513d d84f 593d 2b2e fd3c 02f5 66bd
00000250: 0b22 af3d 5f2b 32bc 4c38 463c 8d22 01be
00000260: 7e41 c53d 861b 18bd 1828 043c 6243 03bd
00000270: 4244 583d 942f e9bd bedb f8bd 7f3e a3bd
00000280: 86a7 f9bd 7c99 aa3d 32b5 5dbd db23 debc
00000290: cff1 ddb9 0b3d a0bd 480a e83c bad9 a33d
000002a0: 4e96 c53c 4ab7 63bb 733a dcbd 6c98 d5bb
000002b0: 5eb6 1abd bd35 2b3d 9b2b 73bd 9762 713d
000002c0: 9cb6 873d a510 a83d a8a8 0dbe 8022 a03d
000002d0: 31cb 08be 061c cbbd e7c0 52bd 164b 6fbc
000002e0: 4b0e 153d 3ae4 69bd 2017 fbbd 2127 6d3d
000002f0: 0832 703c 208c 0cbe f858 593d 4aea b8bc
00000300: 8422 40bd 9eee 873d cd27 e7bd 9c19 b93d
00000310: 309c c63d bfff 0bbe 6631 d93d c52e 0b3d
00000320: 7ad4 3bbd 1b8e 4dbb 93b0 68bd ae56 bcbd
00000330: 6bf3 07be 74e4 b93d 5ad8 6fbd 49c7 f7bd
00000340: 92ba ac3d edc0 703c 8150 a3bc c106 8fbd
00000350: 42b9 47bd 11c5 9abc d9b2 edbd 4ecd 5fbd
00000360: 7a46 2abc 3c67 f43c 6c19 34bd 8224 83bd
00000370: c84f a83d 4a78 c83d daef 653c 5ad1 7ebc
00000380: 934f bfbd 9480 82bd f286 0bbe f746 0bbe
00000390: 8ec2 343d 66fc 283d a4cc e5bb 7b3a d6bd
000003a0: 6b46 92bd 0de5 bebd 03ae d23d e4a9 9e3c
000003b0: 1ee4 dfbc da18 ecbc a28e 463d c554 e23c
000003c0: 1855 ad3c ccd6 f03b ccfc c6bc e949 98bd
000003d0: 9254 a2bd 2981 863d 2466 05bd f738 d7bb
000003e0: 0f1e f5bd 0020 e9bd dde7 363d 9289 803d
000003f0: 428a 85bd bad2 02be d732 5abd 9989 2dbd

fc2.bias f4 [32]
0.22777928 0.022029102 -0.06469713 -0.13183652 -0.001950219 -0.07131321 -0.035899617 0.24370109
0.08702789 -0.050402075 0.20234974 0.21417648 0.15098353 0.2360426 -0.12814571 0.20011082
-0.04989606 -0.114467405 0.003961251 0.16605234 0.02658458 -0.09226293 -0.12773485 0.19604021
-0.10932967 -0.06763892 0.12213628 0.06489332 0.08812642 0.05777597 -0.08526543 0.0393627
00000000: f93e 693e 6076 b43c ee7f 84bd 2700 07be
00000010: 7e9e ffba a90c 92bd 7a0b 13bd c78c 793e
00000020: ae3b b23d 6872 4ebd c534 4f3e 1451 5b3e
00000030: 6d9b 1a3e 27b5 713e a138 03be dae9 4c3e
00000040: d05f 4cbd e36d eabd 62cd 813b a009 2a3e
00000050: e8c7 d93c 59f4 bcbd edcc 02be c4be 483e
00000060: 3ce8 dfbd 4686 8abd 9622 fa3d cae6 843d
00000070: a07b b43d 7fa6 6c3d a49f aebd c83a 213d

fc3.weight f4 [1, 32]
0.26624614 -0.039026197 -0.08058786 -0.050564468 -0.13268478 -0.0024642588 -0.07933147 0.400668
0.025237601 -0.13587043 0.3054982 0.3160155 0.2697989 0.2819649 -0.10761894 0.24606979
-0.09407913 -0.016389253 -0.13750511 0.32984522 -0.12383125 -0.11333699 -0.07957961 0.37571773
-0.007863838 -0.04404026 0.24364108 -0.044992775 -0.014601007 0.39003816 -0.036041602 -0.06038511
00000000: 6a51 883e efd9 1fbd 3f0b a5bd b01c 4fbd
00000010: 85de 07be 677f 21bb 8a78 a2bd 5b24 cd3e
00000020: 16bf ce3c 9e21 0bbe 436a 9c3e c9cc a13e
00000030: 1523 8a3e b45d 903e 5267 dcbd b8f9 7b3e
00000040: 8fac c0bd c142 86bc 24ce 0cbe 79e1 a83e
00000050: 3d9b fdbd 391d e8bd a2fa a2bd 135e c03e
00000060: 54d7 00bc 8f63 34bd 0c7d 793e 584a 38bd
00000070: 1039 6fbc 15b3 c73e 5ca0 13bd 6156 77bd
